seizure_detection/models/model_seizure.pth (torch, 993806 bytes, 52 tensors)

input_block.0.weight f4 [16, 6, 1]
0	0xbe5975a5	-0.21236284
1	0xbe873a57	-0.26411697
2	0xbd84627f	-0.06464099
3	0x3e8754a1	0.26431754
4	0x3e47dac1	0.19517042
5	0x3e2d0ec8	0.1690017
6	0xbeab7a7b	-0.33491883
7	0xbe90acd6	-0.28256863
8	0x3ef2df20	0.47435856
9	0x3ea4bca0	0.3217516
10	0xbb120a4c	-0.002228397
11	0xbda0fa60	-0.07860255
12	0xbe042afd	-0.12907024
13	0xbe7a1e39	-0.24425592
14	0xbeb4c55b	-0.3530682
15	0xbecedef2	-0.4040447
16	0xbe291594	-0.16512138
17	0xbde30002	-0.11083986
18	0xbe07cdd3	-0.1326211
19	0xbe2d1574	-0.16902715
20	0xbe447aca	-0.19187465
21	0xbd564aee	-0.052317552
22	0x3e99bcc7	0.30026838
23	0xbeb32529	-0.34989288
24	0x3efe06df	0.49614617
25	0xbe8cd44b	-0.27505717
26	0xbdf04bae	-0.11733185
27	0x3e4ebfcc	0.20190352
28	0x3eb936dd	0.3617467
29	0x3e940890	0.28912783
30	0x3e01312e	0.12616417
31	0xbe2ab6b6	-0.16671261
32	0xbe8d6bcf	-0.27621314
33	0xbed3cea9	-0.41368607
34	0x3ec361bf	0.38160512
35	0xbca723ae	-0.020402756
36	0xbec7da0d	-0.39033547
37	0x3ea4de7c	0.32200992
38	0xbd462f46	-0.048384927
39	0xbe8bba78	-0.27290702
40	0x3dd063e8	0.101753056
41	0x3e07210d	0.13196202
42	0xbe1834d8	-0.14863908
43	0x3e7782f0	0.24171042
44	0x3ee02382	0.4377709
45	0x3e50135f	0.2031989
46	0x3d935be6	0.071952626
47	0xbd0935f8	-0.033498734
48	0xbde7f398	-0.11325759
49	0xbe1f4d77	-0.15556894
50	0xbd4374b3	-0.047718715
51	0xbc7f3607	-0.015576846
52	0x3e277138	0.16351783
53	0x3f1e0bce	0.6173676
54	0x3cdb868f	0.026797561
55	0xbd1b9c38	-0.03799078
56	0x3df94cc6	0.121728465
57	0x3defc386	0.11707215
58	0xbe17654f	-0.1478474
59	0xbec6cddb	-0.3882893
60	0x3d9c526d	0.07632909
61	0x3ed5a6d1	0.41728833
62	0x3e8b4e09	0.27207974
63	0xbea6ee94	-0.32603896
64	0xbe73b183	-0.23798184
65	0xbe12b742	-0.1432772
66	0x3d1fc634	0.03900738
67	0xbf01a190	-0.5063715
68	0xbce81798	-0.028331563
69	0xbd22d942	-0.039757974
70	0xbd85f087	-0.065400176
71	0x3df9ef3f	0.12203836
72	0x3efbf694	0.49211562
73	0x3e92882c	0.28619516
74	0xbd041fa1	-0.032256726
75	0x3d74b65b	0.05974422
76	0xbda5fcd1	-0.081048615
77	0x3ec79bea	0.3898614
78	0xbe7ad263	-0.24494319
79	0xbe7e1bbc	-0.24815267
80	0xbe24dd67	-0.16100083
81	0xbecfd0e0	-0.40589046
82	0xbd89a7e9	-0.067214794
83	0xbde589cc	-0.11207923
84	0xbddbd7ff	-0.10734557
85	0x3d9e0a80	0.077168465
86	0x3cb8b7d9	0.022548603
87	0xbdbdabcc	-0.09261283
88	0xbe2266fa	-0.15859595
89	0xbf1900ee	-0.59767044
90	0xbd418d4a	-0.047253884
91	0xbd15b5f3	-0.036550473
92	0xbed24623	-0.41069135
93	0x3e6e7ac8	0.23289025
94	0xbd05d730	-0.032675922
95	0xbd5a536d	-0.053302217

input_block.0.bias f4 [16]
0	0xb829bde1	-4.046958e-05
1	0xb82e5779	-4.1566298e-05
2	0xb7950324	-1.7763647e-05
3	0x37beaaee	2.272936e-05
4	0x39391d2a	0.0001765384
5	0x3913ddc2	0.00014101624
6	0x38525366	5.0145572e-05
7	0x3839cc54	4.4297733e-05
8	0x395c4397	0.00021006014
9	0xb71af451	-9.236e-06
10	0x37cc3933	2.434533e-05
11	0xb90669f0	-0.000128187
12	0xb96aa8af	-0.00022378819
13	0x3771b90f	1.4407807e-05
14	0xb890e2f8	-6.908731e-05
15	0x3880e580	6.146263e-05

input_block.1.weight f4 [16]
0	0x3f56db32	0.83928216
1	0x3f85f062	1.0463984
2	0x3f758f56	0.9592184
3	0x3f414099	0.75489193
4	0x3f704fc3	0.93871707
5	0x3f81b15d	1.0132252
6	0x3f6fad38	0.93623686
7	0x3f827e31	1.019476
8	0x3f88e2c2	1.0694201
9	0x3f817d0f	1.011629
10	0x3f680d52	0.90645325
11	0x3f61445f	0.8799495
12	0x3f85b2ac	1.0445151
13	0x3f26fea6	0.6523231
14	0x3f7c2a56	0.985021
15	0x3f6acf7b	0.9172284

input_block.1.bias f4 [16]
0	0x3c930e25	0.01795108
1	0xbd3f86f7	-0.046759572
2	0x3dbcdfe6	0.09222393
3	0x3e953060	0.2913847
4	0x3e5b5ca4	0.21422058
5	0xbbee37c2	-0.0072698304
6	0x3dd9d1b0	0.10635698
7	0x3e102fd0	0.14080739
8	0x3c93b36f	0.018029897
9	0xbce8cacc	-0.028417014
10	0x3e1d8de1	0.15386154
11	0xbdc8d5d4	-0.098064095
12	0x3d7da876	0.061928235
13	0xbe65c554	-0.22438556
14	0x3cc04c11	0.023473771
15	0xbce157ee	-0.027507748

input_block.1.running_mean f4 [16]
0	0x3b139f06	0.0022525205
1	0x3b4323a7	0.002977589
2	0x3b709e53	0.0036715462
3	0x3bb646dd	0.005562647
4	0x3a4699ce	0.0007576019
5	0x3b3a10f0	0.0028391443
6	0xbb5e42cb	-0.0033914323
7	0xbb255f1b	-0.002523369
8	0xbb358c66	-0.0027702092
9	0x3b3c35f8	0.0028718691
10	0xbb8cbf24	-0.0042952467
11	0x3b79d32e	0.0038120258
12	0xbbdaee44	-0.0066812355
13	0x3b73ceb9	0.0037202074
14	0x3b7680db	0.0037613425
15	0x3ae7be8d	0.001768069

input_block.1.running_var f4 [16]
0	0x3ecf6182	0.4050408
1	0x3f4de0d4	0.80421185
2	0x3fa4041b	1.2813753
3	0x3f1e8ba9	0.61931854
4	0x3fc5c616	1.5451076
5	0x3f479f24	0.77977204
6	0x3f4672ff	0.7751922
7	0x3f3d8e1f	0.74044985
8	0x3f5378b9	0.82606083
9	0x3ebca736	0.36846322
10	0x3f44d2b8	0.7688403
11	0x3f30294d	0.6881302
12	0x3f91d742	1.1393816
13	0x3f804b6a	1.0023015
14	0x3f7fca54	0.99918103
15	0x3f09fc5a	0.5390068

feature_extractor.0.conv3.weight f4 [21, 16, 3]
0	0x3d6824e6	0.056675814
1	0x3c8bc337	0.01706086
2	0x3d48cfa2	0.04902614
3	0x3e3f2e35	0.1866997
4	0x3e271bf4	0.16319257
5	0x3dcf2b8d	0.101157285
6	0x3dd8d562	0.105875745
7	0xbc320fc1	-0.010868014
8	0xbd3d8886	-0.046272777
9	0x3e3393e7	0.17536889
10	0xbd6e356a	-0.05815641
11	0xbdddb6f2	-0.1082591
12	0x3dc6bb58	0.09703702
13	0xbcbc097c	-0.022953741
14	0x3dae1441	0.08499957
15	0xbe33b254	-0.17548496
16	0xbcf9a43a	-0.030473817
17	0xbc68d32f	-0.014210506
18	0x3d52ab52	0.051432915
19	0x3d007ef4	0.031371072
20	0xbdce3876	-0.10069363
21	0xbe2157b0	-0.15756106
22	0xbe634995	-0.22196038
23	0xbd964fa8	-0.07339412
24	0xbe03e633	-0.12880783
25	0xbe749878	-0.23886287
26	0xbdbeef6c	-0.0932301
27	0x3a131562	0.0005610791
28	0xbe1d15d0	-0.15340352
29	0xbe404c5e	-0.18779132
30	0x3d2c92fe	0.04213237
31	0xbaf15b24	-0.0018414003
32	0x3da85afc	0.08220479
33	0xbe023772	-0.12716463
34	0xbd35c37b	-0.044375878
35	0xbe31e6ae	-0.17373154
36	0x3db514eb	0.088418804
37	0xbda87ffc	-0.08227536
38	0xbdc6949b	-0.09696313
39	0x3dcbc437	0.099495344
40	0x3d33c94c	0.043893144
41	0x3df57177	0.11984532
42	0xbd8c81eb	-0.068607174
43	0xbdec2af8	-0.11531633
44	0xbd76684a	-0.06015805
45	0xbe4c706b	-0.19964759
46	0xbdd21f74	-0.102599055
47	0xbe287d3b	-0.16454022
48	0xbaff30bd	-0.0019469481
49	0x3e0ed529	0.13948502
50	0x3dd7351d	0.105081774
51	0x3d267e2a	0.040647663
52	0x3c527f9e	0.012847809
53	0x3da46bd2	0.080283776
54	0xbd9540d0	-0.07287753
55	0x3dcbff0f	0.09960758
56	0x3d78b6cc	0.060721204
57	0xbe6ed3a9	-0.2332293
58	0xbe0e5632	-0.13900068
59	0xbd3ed5fc	-0.04659079
60	0xbdeb66e0	-0.11494231
61	0xbe2b354e	-0.16719553
62	0xbc33bf66	-0.010970926
63	0x3e425a90	0.1897986
64	0x3dc6102c	0.09671053
65	0x3e0b1b94	0.13584739
66	0xbd6f0661	-0.058355693
67	0x3db36579	0.08759589
68	0x3bd88183	0.006607236
69	0xbdcbb636	-0.09946863
70	0xbdfd3d44	-0.12365201
71	0xbd8c46bf	-0.06849431
72	0x3cc11324	0.023568697
73	0x3c4fd8b8	0.012685947
74	0x3da7c1f7	0.08191293
75	0xbdb9a3cc	-0.09064445
76	0xbd0caee9	-0.034346495
77	0xbdd3d007	-0.103424124
78	0xbd912da8	-0.07088786
79	0xbd515e0a	-0.051115073
80	0xbd9042c2	-0.07043983
81	0x3e848a47	0.25886747
82	0x3e043f8b	0.12914865
83	0x3e4c0122	0.19922307
84	0xbd89462a	-0.06702836
85	0xbd86319a	-0.065524295
86	0x3cd505d0	0.026003748
87	0xbd0c4876	-0.03424879
88	0x3be218e9	0.006899942
89	0x3e343577	0.1759852
90	0xbd65282e	-0.05594652
91	0xbd972100	-0.07379341
92	0xbe1094b1	-0.14119221
93	0xbddb0c77	-0.10695737
94	0xbd82889f	-0.06373715
95	0xbe182088	-0.1485616
96	0xbd076ea2	-0.033064492
97	0xbd27e43c	-0.040989146
98	0xbaac4164	-0.0013142047
99	0x3e1b607e	0.15173528
100	0x3e157433	0.14595108
101	0x3e440b15	0.19144852
102	0x3bffc805	0.0078058266
103	0x3ca76e0d	0.020438218
104	0xbe4042ad	-0.18775435
105	0x3db9b269	0.09067232
106	0x3dabaf0b	0.08382996
107	0x3dd7939d	0.10526202
108	0xbc15b2fd	-0.009136912
109	0x3dbd40d0	0.09240878
110	0x3d917625	0.071026124
111	0xbe2509ae	-0.16116974
112	0xbe3bf989	-0.18356909
113	0xbe502cca	-0.20329586
114	0x3c86d337	0.016458137
115	0x3d4ae2e4	0.049532786
116	0x3d09ffe0	0.033691287
117	0xbe5c5ee5	-0.21520574
118	0xbc2a4f8b	-0.010394941
119	0xbd73cb4c	-0.05952005
120	0x3b1de3cf	0.0024092083
121	0x3e3b271f	0.18276642
122	0x3e2199d3	0.15781336
123	0x3d6553a5	0.055987973
124	0x3be62c05	0.0070242905
125	0x3d468bd6	0.0484732
126	0x3db82914	0.0899221
127	0x3cbfe9e7	0.023426963
128	0x3d0d112d	0.03444021
129	0xbe4d2947	-0.20035277
130	0xbe18f9b6	-0.14939007
131	0xbdb62274	-0.0889329
132	0x3e73df1a	0.23815575
133	0x3dd5b0d9	0.10434122
134	0x3d16b816	0.03679665
135	0xbe2bbc9a	-0.16771165
136	0xbe33086a	-0.17483678
137	0xbd188202	-0.03723336
138	0x3b57a5fd	0.0032905333
139	0x3d813eaa	0.0631078
140	0xbd998a70	-0.07497108
141	0xbad17f07	-0.0015983292
142	0x3dc47037	0.09591716
143	0xbd9344c2	-0.07190849
144	0xbc5c162b	-0.01343302
145	0x3e2a39a0	0.16623545
146	0x3dd33700	0.10313225
147	0xbd259852	-0.040428467
148	0x3bc98027	0.00614931
149	0x3e55e188	0.20886815
150	0x3d59f923	0.05321611
151	0xbcde1e20	-0.027113974
152	0x3ccb4fa4	0.024818249
153	0x3d2c3787	0.042045143
154	0xbd0dcea6	-0.034620903
155	0xbce02012	-0.027359042
156	0xbe14e290	-0.14539552
157	0xbc1f81c1	-0.009735526
158	0xbd9d8f2b	-0.07693323
159	0x3c8316bc	0.016002052
160	0x3d837aa3	0.064198755
161	0xbe196176	-0.14978585
162	0xbda3577f	-0.07975673
163	0xbd9c561c	-0.076336116
164	0xbe21e257	-0.15808998
165	0xbd0e874d	-0.034797
166	0xbe38f42d	-0.18061896
167	0xbe56293f	-0.20914172
168	0x3e17b8fd	0.14816661
169	0x3d9f6969	0.07783777
170	0x3ce20067	0.027588082
171	0xbc1180ca	-0.008880803
172	0x3d195e43	0.03744341
173	0xbbee6364	-0.007275032
174	0x3c56527a	0.013081187
175	0xbd9eea3d	-0.07759521
176	0x3c3b2c3f	0.011424123
177	0x3c7bd488	0.015370496
178	0x3d64999d	0.05581056
179	0x3d69814f	0.057008084
180	0xbd8b37ad	-0.06797729
181	0xbe13a060	-0.14416647
182	0xbd932690	-0.071850896
183	0xbb06a8de	-0.002054743
184	0xbd4c00e8	-0.04980555
185	0xbd7be1ad	-0.061494518
186	0x3e1fe815	0.15615876
187	0x3e5d1588	0.21590245
188	0x3e493ac2	0.1965132
189	0xbe9369f8	-0.28791785
190	0xbde00571	-0.10938538
191	0xbdd8be9f	-0.10583233
192	0x3d84c06a	0.064820126
193	0x3d43ad87	0.04777291
194	0x3c39fee7	0.011352277
195	0x3e1f8555	0.15578206
196	0x3dcbc151	0.099489816
197	0xbd145cc8	-0.036221296
198	0x3dfb0c1a	0.122581676
199	0x3cd075a2	0.025446717
200	0x3e159957	0.14609276
201	0xbda70092	-0.08154406
202	0xbcf85da1	-0.030318083
203	0xbd7c751a	-0.061635114
204	0xba073acd	-0.00051586033
205	0x3de3a61c	0.11115667
206	0xbdb505f9	-0.0883903
207	0xbd090876	-0.033455335
208	0xbdf544e3	-0.1197603
209	0x3dc44235	0.095829405
210	0xbe058159	-0.13037623
211	0xbe2a7856	-0.16647467
212	0xbd29def0	-0.041472375
213	0xbceb3443	-0.028711444
214	0x3c108962	0.008821817
215	0xbd951ebc	-0.07281253
216	0x3e029182	0.1275082
217	0x3e2fffe7	0.17187463
218	0x3e285183	0.16437344
219	0x3e4d5d14	0.20055038
220	0x3e43da07	0.1912614
221	0x3e1aec25	0.15129144
222	0xbdfd064c	-0.12354717
223	0xbd8c1884	-0.068406135
224	0xbcf4a977	-0.029865963
225	0x3e3a2d59	0.18181361
226	0x3e125824	0.14291435
227	0x3d84a9b5	0.064776815
228	0xbd9a6359	-0.0753848
229	0xbdc85660	-0.097821
230	0xbba00d70	-0.0048844144
231	0x3c723822	0.014783891
232	0xbd9901fe	-0.07471083
233	0xbc9ce732	-0.019153211
234	0x3d3d8fbd	0.046279658
235	0xbde3b90e	-0.11119281
236	0xbdde6691	-0.10859407
237	0xbdebf9b8	-0.115222394
238	0xbe21ca6d	-0.15799876
239	0xbe13cb19	-0.14432944
240	0x3d6d6f13	0.057967257
241	0x3ddf4027	0.10900908
242	0x3cc8ed67	0.024527265
243	0x3db9b61b	0.09067937
244	0x3dbcaae3	0.092122816
245	0x3e17679c	0.14785618
246	0x3cdb01b9	0.02673422
247	0xbd05a014	-0.032623366
248	0xbc2be592	-0.010491746
249	0x3db93218	0.09042758
250	0xbc9f7241	-0.01946366
251	0x3dd25706	0.10270505
252	0x3e0dc9ee	0.13846561
253	0x3c20539f	0.009785562
254	0xbd232af3	-0.03983588
255	0xbe1b59d3	-0.15170984

feature_extractor.0.conv3.bias f4 [21]
0	0xbe329745	-0.17440517
1	0x3d4ed1b4	0.050492957
2	0xbcb03416	-0.021509212
3	0xbd9bb405	-0.076026954
4	0x3db36f19	0.087614246
5	0xbd111bb4	-0.03542681
6	0xbd451bd4	-0.048122242
7	0xbde07380	-0.1095953
8	0xbe1bee1f	-0.15227555
9	0x3dff3c05	0.1246262
10	0xbd3aa077	-0.045563187
11	0xbd120c9c	-0.035656556
12	0x3d681313	0.056658816
13	0x3e1b8b3a	0.1518983
14	0x3d606679	0.054785226
15	0xbdb74853	-0.089493416
16	0xbe4c9257	-0.19977699
17	0xbd47985d	-0.04872929
18	0x3d93c148	0.072146
19	0x3e4dd820	0.20101976
20	0xbe38582a	-0.18002382

feature_extractor.0.conv5.weight f4 [21, 16, 5]
0	0xbcfed643	-0.031108027
1	0xbb5ad6aa	-0.003339211
2	0xbd19dacd	-0.03756218
3	0x3c648685	0.013948088
4	0x3d28eeba	0.041243292
5	0x3d68c14b	0.056824964
6	0xbd98fac4	-0.07469705
7	0xbd9e4e1a	-0.077297404
8	0xbd6be583	-0.057591926
9	0xbc562cc9	-0.013072201
10	0x3d4e40ba	0.050354697
11	0x3cb4e562	0.022082034
12	0x3cd8d3cc	0.02646818
13	0x3cd88ce9	0.026434379
14	0xbd92d22e	-0.07168995
15	0xbdd2a805	-0.102859534
16	0xbaca361b	-0.0015427502
17	0x3d782bf5	0.060588796
18	0xbd8c4765	-0.06849555
19	0xbd1ecb05	-0.038767833
20	0xbe0ec6a2	-0.1394296
21	0xbd371526	-0.044697903
22	0x3c1f1f68	0.009712078
23	0xbdaa43ee	-0.08313738
24	0xbdb4ea38	-0.08833736
25	0x3da3fda1	0.0800736
26	0x3d0f372d	0.03496473
27	0x3d71f896	0.05907496
28	0x3e01ee58	0.12688577
29	0x3d880ee1	0.06643463
30	0x3c6b7cf4	0.014373053
31	0x3dcdfb4c	0.10057697
32	0x3df7365e	0.120709166
33	0x3e029c96	0.12755045
34	0x3e14130d	0.14460392
35	0xbdedf26a	-0.116185024
36	0xbe657668	-0.2240845
37	0xbda18aa1	-0.078877695
38	0xbe47b004	-0.19500738
39	0xbdf139e1	-0.11778618
40	0x3dad75f3	0.08469763
41	0x3d7f1c27	0.062282708
42	0x3d670e16	0.056409918
43	0x3dd13707	0.10215574
44	0x3d23689b	0.03989468
45	0x3da8589d	0.08220027
46	0x3d3a30a4	0.045456544
47	0x3d7e91ee	0.06215089
48	0xba213e0a	-0.0006150907
49	0x3d293bc1	0.04131675
50	0x3e172cda	0.14763203
51	0x3db2bf23	0.08727863
52	0xbb54c8b7	-0.0032468268
53	0x3d7cfbac	0.06176345
54	0x3ccebf2e	0.025237646
55	0xbbc2a71d	-0.0059403316
56	0x3b64b5a5	0.0034898308
57	0x3d3adc99	0.045620535
58	0xbd9c99bb	-0.07646509
59	0xbddb08d8	-0.10695046
60	0x3c8688f4	0.016422726
61	0x3d9d4342	0.07678844
62	0x3d716a51	0.05893928
63	0x3e09ed41	0.13469411
64	0x3d1799b4	0.037011817
65	0xbd5cfd00	-0.053952217
66	0x3d355b59	0.04427657
67	0x3dcbe4c5	0.09955744
68	0x38562f8c	5.1065857e-05
69	0xbd774ba6	-0.06037488
70	0x3e336cc7	0.17521964
71	0x3d5c47ab	0.053779285
72	0x3d311d8f	0.04324108
73	0x3d6f8423	0.058475625
74	0x3d67ec8e	0.05662208
75	0xbe1f113b	-0.15533917
76	0xbdeeb6bf	-0.1165595
77	0xbdf125bb	-0.11774775
78	0xbe2e46ad	-0.17019148
79	0xbe6b8658	-0.23000467
80	0x3dfee191	0.12445367
81	0x3dd925b6	0.10602896
82	0x3db94392	0.09046091
83	0xbcd91d76	-0.026503306
84	0x3d0906ad	0.033453632
85	0x3db5e74d	0.08882008
86	0xbd80e5d2	-0.06293835
87	0x3da34dcd	0.07973824
88	0x3ce98a0f	0.028508214
89	0xbddad519	-0.106851764
90	0xbdb94e52	-0.090481415
91	0x3d848bcd	0.064719774
92	0xbd243cfc	-0.04009722
93	0x3dc27738	0.094953954
94	0x3e0a175d	0.13485475
95	0xbd546229	-0.051851425
96	0xbd2ce29e	-0.042208306
97	0xbd49998f	-0.04921871
98	0x3dc2f370	0.09519088
99	0x3d610cc3	0.05494381
100	0x3d874167	0.066042714
101	0x3dd5e4cd	0.10444031
102	0xbd2cddb5	-0.042203624
103	0xbbf9886c	-0.0076151397
104	0xbe1aa678	-0.15102565
105	0xbddf7f00	-0.10912895
106	0xbdbb2381	-0.09137631
107	0xbd1d7313	-0.03843982
108	0xbdc26931	-0.0949272
109	0x3cbc4122	0.022980276
110	0xbd801b24	-0.06255177
111	0x3d2582cd	0.040407944
112	0x3d650398	0.05591163
113	0xbd6d582b	-0.05794541
114	0x3d817fad	0.0632318
115	0xbdd06336	-0.10175173
116	0x3c81ac17	0.01582913
117	0xbe36274b	-0.17788427
118	0xbe69b09e	-0.2282128
119	0xbe9b1cc2	-0.30295378
120	0x3e3af92d	0.18259116
121	0x3e968431	0.2939773
122	0x3e20e6e5	0.1571308
123	0x3db025c6	0.08600955
124	0xbc448781	-0.011995197
125	0x3d203b23	0.039118897
126	0xbcc73839	-0.024318801
127	0xbda43e1c	-0.08019659
128	0xbc636782	-0.013879659
129	0x3d69bbd0	0.057063878
130	0x3c855bcb	0.016279122
131	0xbc99b22a	-0.018761713
132	0x3d9dc19a	0.07702942
133	0x3ca9af5b	0.020713499
134	0x3d398491	0.04529244
135	0x3ced4f0a	0.028968353
136	0xbdff454d	-0.1246439
137	0xbd75c66b	-0.06000368
138	0xbd0734e2	-0.033009417
139	0x3d528798	0.051398844
140	0x3dfd0c1e	0.12355827
141	0x3e26360c	0.16231555
142	0x3e241aed	0.16025896
143	0x3dc5c1a7	0.09656077
144	0xbd89d803	-0.06730654
145	0xbdd7b1d5	-0.10531966
146	0xbd9cd38d	-0.076575376
147	0x3c9cbc22	0.019132677
148	0x3ba7f167	0.005125213
149	0x3e01a943	0.12662224
150	0x3d42a4d0	0.04752046
151	0xbd8dd7db	-0.06925937
152	0x3db230a8	0.08700687
153	0x3d62fa1e	0.05541431
154	0x3df72ead	0.120694496
155	0xbdc6423a	-0.096806005
156	0xbd8ee277	-0.069767885
157	0xbd8cac9c	-0.0686886
158	0xbc9a2f1e	-0.018821295
159	0xbcaa9f58	-0.020827934
160	0xbdea2cd9	-0.11434335
161	0xbe0e9dec	-0.1392743
162	0x3d85586d	0.065110065
163	0x3d25a339	0.040438864
164	0x3e4cc646	0.1999751
165	0xbe10019e	-0.14063117
166	0xbe2dfb68	-0.16990435
167	0xbd7298dd	-0.059227813
168	0x3d5a74ca	0.053334035
169	0xbcba4308	-0.022737041
170	0x3dc4d88b	0.09611615
171	0x3d3b97b5	0.045798976
172	0xbd3a0b8a	-0.04542116
173	0xbc78dcff	-0.015189408
174	0x3dd79bec	0.105277866
175	0xbd558169	-0.05212537
176	0xbd93583f	-0.07194566
177	0x3ccc7732	0.02495918
178	0x3d6688a2	0.056282647
179	0x3dabafab	0.083831154
180	0xbe332ff9	-0.17498769
181	0xbcf994d2	-0.03046647
182	0xbd8a3ab1	-0.06749476
183	0x3d90f754	0.07078424
184	0x3d404d42	0.04694868
185	0xbe408ed0	-0.18804479
186	0xbd941d97	-0.07232206
187	0xbd61c0dc	-0.055115566
188	0xbd00ed2d	-0.03147619
189	0x3e44fb43	0.19236474
190	0x3d7da8cf	0.061928567
191	0xbda4f23e	-0.080540165
192	0xbd2d4cb0	-0.042309463
193	0xbe536255	-0.2064298
194	0xbe382fdd	-0.17987008
195	0x3e6fb138	0.23407447
196	0x3e15a034	0.14611894
197	0x3c8d9ce1	0.01728672
198	0x3bbd6727	0.005780119
199	0xbdd98417	-0.10620897
200	0xbe013dfe	-0.12621304
201	0xbde6e7d5	-0.11274687
202	0xbd025c30	-0.031826198
203	0x3de68827	0.11256438
204	0x3e75a5a5	0.2398897
205	0x3dab84cf	0.083749406
206	0xbd83107b	-0.06399628
207	0x3d004abd	0.031321276
208	0xbddc311c	-0.10751554
209	0xbe508414	-0.20362884
210	0x3d8c9777	0.06864827
211	0x3d35e452	0.044407196
212	0xbd53d905	-0.051720638
213	0xbe843f22	-0.25829417
214	0xbe613bb0	-0.21995425
215	0xbe311bff	-0.17295836
216	0xbd79067a	-0.060797192
217	0x3d4f18b0	0.050560653
218	0x3d187543	0.037221204
219	0x3e1339c7	0.14377509
220	0x3c47ca44	0.01219422
221	0x3db4891c	0.08815214
222	0xbd12d84d	-0.03585081
223	0x3d35f043	0.044418585
224	0xbd902d6c	-0.070399135
225	0x3d73841f	0.059452172
226	0x3d5798cb	0.05263595
227	0x3e0c2d8c	0.1368925
228	0x3e123f84	0.14282042
229	0x3e1431e9	0.14472164
230	0x3e10e90c	0.141514
231	0x3e0b4257	0.13599525
232	0x3d29842b	0.04138581
233	0xbb81f860	-0.003966376
234	0x3d1f90ed	0.03895657
235	0x3c1fe124	0.009758268
236	0xbd6e518b	-0.058183234
237	0xbb27a8de	-0.002558283
238	0xbd8422ae	-0.06451927
239	0xbe001585	-0.12508209
240	0xbd1d992c	-0.038476154
241	0xbd47628b	-0.048677962
242	0x3d0fe66d	0.03513186
243	0x3deb919e	0.11502384
244	0x3972534b	0.00023109948
245	0x3d8d5ecc	0.06902847
246	0x3d95fa22	0.073231
247	0x3cff67f3	0.031177497
248	0x3e06a2aa	0.13147989
249	0x3dd5cd7c	0.10439584
250	0x3dbd351e	0.09238647
251	0x3cdb9778	0.026805624
252	0x3dc4b8de	0.09605573
253	0x3ca8cc39	0.020605193
254	0xbc44b278	-0.012005441
255	0xbdf71b53	-0.120657586

feature_extractor.0.conv5.bias f4 [21]
0	0xbe4c0cff	-0.19926833
1	0x3c924469	0.017854886
2	0x3dbe3af2	0.09288587
3	0x3d86ca99	0.06581611
4	0x3e43beb7	0.1911572
5	0xbdc40181	-0.09570599
6	0x3d8733e6	0.06601696
7	0xbd98f5c8	-0.07468754
8	0xbd94511a	-0.072420314
9	0xbe06a543	-0.1314898
10	0xbe44d9ef	-0.1922376
11	0x3c910072	0.017700408
12	0xbcc3debb	-0.023909917
13	0xbe0e6458	-0.13905466
14	0xbde3cef5	-0.11123458
15	0x3dbb8ead	0.091580726
16	0x3db42c57	0.0879752
17	0xbe1d6410	-0.15370202
18	0xbdb45752	-0.088057175
19	0x3d908018	0.07055682
20	0xbe5083ff	-0.20362853

feature_extractor.0.conv7.weight f4 [21, 16, 7]
0	0xbdc1f685	-0.09470848
1	0xbdd995d8	-0.106242836
2	0xbdc45bdb	-0.095878325
3	0xbdbd5e67	-0.092465214
4	0xbe06fb9d	-0.1318192
5	0xbdb5f286	-0.08884148
6	0xbdf26c98	-0.11837119
7	0x3df899d4	0.121387154
8	0x3e002bf5	0.12516768
9	0x3c9a4780	0.018832922
10	0x3d7c93ec	0.061664507
11	0x3c62edb0	0.013850614
12	0x3c016d48	0.00789959
13	0x3db082ae	0.08618675
14	0x3d17c48e	0.037052684
15	0x3d4690c3	0.0484779
16	0x3dc99877	0.098435335
17	0xbd32a9ce	-0.04361897
18	0xbc938d9e	-0.018011864
19	0xbd91a81c	-0.071121424
20	0xbca87522	-0.020563666
21	0x3c008bbf	0.007845818
22	0xbb8316d8	-0.004000526
23	0x3cf518d4	0.029919066
24	0xbd35112f	-0.04420584
25	0x3db2a0c5	0.087220706
26	0x3dd23680	0.10264301
27	0xbc59d1d5	-0.013294657
28	0xbe1efa15	-0.15525086
29	0xbdb58cef	-0.088647716
30	0xbd33dd41	-0.043912176
31	0x3d9cc609	0.0765496
32	0x3e135364	0.1438728
33	0x3d621b6f	0.055201944
34	0x3d0c1ae2	0.034205325
35	0xbd0169ea	-0.03159515
36	0x3d5c6689	0.053808723
37	0xbd549d6a	-0.051907934
38	0x3c92de14	0.01792816
39	0xbd7c263f	-0.06155991
40	0xbe06c306	-0.13160333
41	0xbe98fb4f	-0.29879233
42	0x3da69cf2	0.08135404
43	0x3dc877c8	0.097884715
44	0x3dafd562	0.085856214
45	0x3e248590	0.16066575
46	0x3dd17b17	0.10228556
47	0x3e255308	0.16144955
48	0x3e07c963	0.13260417
49	0xbd91429a	-0.07092781
50	0xbe34fde4	-0.17674977
51	0xbd45a24f	-0.048250493
52	0xba4a152e	-0.00077088445
53	0xbd7ab320	-0.061205983
54	0xbd17c39c	-0.037051782
55	0x3ce12852	0.027485047
56	0xbd6a5951	-0.057214085
57	0xbd8d24c2	-0.068917766
58	0xbd5db45b	-0.05412708
59	0xbd7bfd84	-0.06152107
60	0x3c6e6a35	0.014551689
61	0xbc84d4d8	-0.016214773
62	0xbd8f83aa	-0.07007535
63	0xbd70ad42	-0.05875898
64	0x3b607281	0.0034247937
65	0xbdaf54d5	-0.08561102
66	0xbd8090c9	-0.062776156
67	0xbc18d1c3	-0.009327355
68	0x3b8ae529	0.004238744
69	0x3ccfc379	0.025361763
70	0x3e357222	0.1771932
71	0x3e09fdc1	0.13475706
72	0x3e00d600	0.12581635
73	0x3dfe2c20	0.1241076
74	0x3d8888be	0.066667065
75	0xbbb77dbd	-0.005599706
76	0x3d8a9793	0.06767192
77	0xbdbaa82f	-0.0911411
78	0xbce13ec3	-0.027495747
79	0xbcfa9dbf	-0.030592797
80	0xbda318ee	-0.07963739
81	0xbc349948	-0.011022873
82	0xbdd8263c	-0.10554168
83	0xbe3a3b3f	-0.18186663
84	0xbcc275ec	-0.02373787
85	0xbd98bff0	-0.07458484
86	0x3ba8fbf0	0.0051569864
87	0x3db203d2	0.08692135
88	0x3e21818d	0.15772076
89	0x3d92bafb	0.0716457
90	0x3d5ea5b3	0.05435724
91	0x3d155a29	0.036462937
92	0x3cb87840	0.022518277
93	0x3d96c2b4	0.073613554
94	0xbb5adebb	-0.0033396918
95	0x3cb8d372	0.022561762
96	0x3d22a2ca	0.03970603
97	0xbd295afc	-0.041346535
98	0x3cbadba7	0.022809817
99	0xbc679b25	-0.01413611
100	0x3d5d0882	0.05396319
101	0x3c5bfd2d	0.013427061
102	0x3c8c8e5f	0.017157732
103	0xbc9b5e72	-0.018965933
104	0x3d8aa567	0.06769829
105	0xbe514db1	-0.20439793
106	0xbd9d22e8	-0.076726735
107	0xbe11e1c2	-0.14246276
108	0xbe162239	-0.14661492
109	0xbe760d48	-0.24028504
110	0xbe43f520	-0.19136477
111	0xbe3bf86a	-0.18356481
112	0x3ce720d8	0.028213903
113	0xbd80775c	-0.06272766
114	0xbcc23589	-0.023707168
115	0xbd5764ca	-0.052586354
116	0xbc09a73b	-0.008401687
117	0x3c375f02	0.011192085
118	0xbd34c017	-0.044128504
119	0xbd980d82	-0.074244514
120	0xbe09bbfd	-0.13450618
121	0xbe2a8d42	-0.16655448
122	0xbdeccfd4	-0.115630776
123	0xbdfdcc82	-0.123925224
124	0xbd9c5d59	-0.07634992
125	0xbd91861e	-0.07105659
126	0xbd3a468c	-0.045477435
127	0x3d33c578	0.043889493
128	0x3c877852	0.016536865
129	0xbd0adefe	-0.03390407
130	0xbdb0edf0	-0.08639133
131	0xbd59143a	-0.052997805
132	0xbd997ed7	-0.07494896
133	0xbe1fb276	-0.15595421
134	0xbe37b7a6	-0.1794115
135	0xbd07a710	-0.033118308
136	0xbd94733a	-0.0724854
137	0xbc86a16b	-0.016434392
138	0x3dcb6732	0.09931792
139	0x3e10e72d	0.14150687
140	0xbe2407b8	-0.1601857
141	0xbe3bd219	-0.18341865
142	0xbdb32823	-0.0874789
143	0xbd027ff5	-0.03186031
144	0xbd91ec22	-0.07125117
145	0x3dedb10e	0.11606036
146	0x3de0880c	0.10963449
147	0xbe38fd47	-0.18065368
148	0xbe3ccc37	-0.18437277
149	0xbd5695fe	-0.052389137
150	0x3c713cf0	0.014724001
151	0x3d5773a1	0.052600507
152	0x3e566ca9	0.20939888
153	0x3e5b3d84	0.21410185
154	0xb6976aa0	-4.5125635e-06
155	0x3dc59334	0.096472174
156	0x3d9f8b40	0.07790232
157	0xbdb4a8d3	-0.08821263
158	0xbe2a050b	-0.16603486
159	0xbe80a7ae	-0.2512793
160	0xbe50c91d	-0.20389219
161	0x3de12284	0.109929115
162	0x3e44fe17	0.19237553
163	0x3de22438	0.110420644
164	0x3e217ec9	0.15771021
165	0xbc200bd5	-0.009768446
166	0x3cbfc1e1	0.023407878
167	0x3c8b6687	0.017016662
168	0xbae67014	-0.0017581009
169	0xbdab970c	-0.08378419
170	0xbdb2dc58	-0.087334335
171	0x3c83e2d7	0.016099377
172	0x3dc1adfd	0.09457014
173	0x3bf0b7d3	0.0073461323
174	0xbc99f511	-0.018793615
175	0xbdd94711	-0.10609258
176	0xbcc752e0	-0.02433151
177	0xbd9bc094	-0.07605091
178	0xbd5713e4	-0.052509204
179	0xbd02e323	-0.031954896
180	0xbd3bbb36	-0.045832835
181	0x3d39ac4b	0.045330327
182	0x3d5fa99b	0.054605108
183	0x3d345d0a	0.04403404
184	0x3e0eb216	0.13935122
185	0x3e02e487	0.12782489
186	0xbdbd7051	-0.09249938
187	0xbda5a0c7	-0.080873065
188	0xbddec845	-0.10878042
189	0xbbe8bdfc	-0.007102726
190	0xbdceddf7	-0.1010093
191	0xbd65bdf7	-0.056089368
192	0x3da53bac	0.08068022
193	0x3dcfa3d8	0.101386726
194	0x3dd07a54	0.10179582
195	0x3ddc6efd	0.10763357
196	0xbdf8c786	-0.12147431
197	0xbd4b78a0	-0.049675584
198	0xbd3d5340	-0.04622197
199	0xbd842425	-0.064522065
200	0xbcb99b36	-0.022657018
201	0xbde24895	-0.11049
202	0xbd33a9bb	-0.04386304
203	0x3d9e2f3b	0.07723852
204	0xbc0e5c5c	-0.008689012
205	0xbc582167	-0.0131915575
206	0xbcbef6ad	-0.023310984
207	0x3c1eea04	0.009699348
208	0xbcbc55cb	-0.022990128
209	0xbadfb1de	-0.0017066558
210	0x3c26b329	0.010174551
211	0xbd4a694d	-0.04941683
212	0xbd298ac4	-0.041392103
213	0x3c5ac107	0.013351685
214	0xbd90587e	-0.070481285
215	0xbd1ab8b1	-0.03777379
216	0xbd9ad69a	-0.07560463
217	0x3dc64f54	0.096830994
218	0x3e0af94d	0.13571663
219	0x3c5a47cd	0.013322783
220	0xbd879ddd	-0.06621907
221	0x3d1997ba	0.037498213
222	0x3c834089	0.016021984
223	0x3c3c131e	0.011479167
224	0x3d091420	0.03346646
225	0x3d15945b	0.036518436
226	0x3c808d22	0.015692297
227	0x3d1b5ad8	0.037928432
228	0x3c9a35c1	0.01882446
229	0xbd6c83e4	-0.05774297
230	0xbd2c7701	-0.04210568
231	0x3de416e6	0.1113718
232	0x3c319bfd	0.010840413
233	0x3e0635b8	0.1310643
234	0x3e0de5ae	0.13857147
235	0x3d4fc1b2	0.05072183
236	0x3d39b14e	0.045335107
237	0xbd090d45	-0.03345992
238	0xbdab28cd	-0.083573915
239	0x3bfd9fb6	0.0077399863
240	0x3e26e9ad	0.16300078
241	0x3e544c39	0.20732202
242	0x3e0f904c	0.14019889
243	0x3e312b82	0.17301753
244	0xbc54afd0	-0.01298137
245	0xbde577e8	-0.11204511
246	0xba8e83c3	-0.0010873008
247	0x3dbf3196	0.0933563
248	0x3d6a7592	0.05724103
249	0x3df3658c	0.11884603
250	0x3ccb1bf4	0.024793603
251	0xbd87364e	-0.06602155
252	0x3ea5e5fa	0.3240202
253	0x3e026467	0.12733613
254	0x3d89879c	0.067153186
255	0x3d2a57a9	0.041587505

feature_extractor.0.conv7.bias f4 [21]
0	0x3d824d2f	0.06362378
1	0x3e366315	0.17811234
2	0x3d992644	0.07478002
3	0xbcf14ff6	-0.029457074
4	0xbda1d01e	-0.07901023
5	0xbcc57115	-0.024101773
6	0xbd790882	-0.06079913
7	0x3e044cee	0.12919971
8	0xbdb283b7	-0.08716529
9	0xbc048c78	-0.008090131
10	0xbd8550cb	-0.06509551
11	0x3d9bc994	0.07606807
12	0x3d5e8cd7	0.054333534
13	0x3de99e9d	0.11407206
14	0x3a03d1a0	0.000502849
15	0x3daf5b79	0.08562369
16	0x3d79f415	0.06102379
17	0xbd43f19b	-0.047837835
18	0x3de058a1	0.109544046
19	0x3b36aff8	0.0027875882
20	0x3c669fdf	0.014076202

feature_extractor.0.attention.2.weight f4 [15, 63]
0	0xbe48c031	-0.19604565
1	0x3cb9cdee	0.022681203
2	0x3c6dcbcc	0.014513921
3	0xbd4bf2ce	-0.049792103
4	0xbc2780ee	-0.01022361
5	0xbc986368	-0.018602088
6	0xbd188b43	-0.037242185
7	0x3ce0c48c	0.02743747
8	0x3d0de5a1	0.03464282
9	0xbda7c3fb	-0.08191677
10	0x3db82d73	0.08993044
11	0x3e514b6d	0.20438929
12	0xbd21e941	-0.03952909
13	0xbe071f6e	-0.13195583
14	0x3dde6624	0.108593255
15	0xbcfe57aa	-0.03104766
16	0x3d5452a0	0.05183661
17	0x3d6a08f4	0.057137445
18	0xbe27a5cb	-0.16371839
19	0xbd952f99	-0.07284469
20	0xbd73668d	-0.059423972
21	0x3c849151	0.016182574
22	0x3da84fc7	0.08218341
23	0xbe303ac4	-0.17209917
24	0xbda63339	-0.08115239
25	0xbe101c66	-0.14073333
26	0x3d06c207	0.032899883
27	0xbd75a1b9	-0.059968684
28	0x3d007e98	0.03137073
29	0xbe267f8b	-0.16259591
30	0xbc23db4e	-0.010001017
31	0x3d225039	0.039627288
32	0x3dafb163	0.08578756
33	0x3dbe000c	0.09277353
34	0x3c0e577f	0.008687853
35	0x3d0dbcd5	0.034603912
36	0xbbc018ef	-0.0058623473
37	0xbe4f66dd	-0.20254083
38	0x3d554664	0.052069083
39	0x3d9c9dce	0.07647286
40	0xbe57332c	-0.21015614
41	0x3de77785	0.113020934
42	0x3d141edf	0.036162253
43	0xbd8b7382	-0.06809141
44	0xbd022423	-0.031772744
45	0xbc55ba46	-0.013044899
46	0x3d61ad06	0.05509665
47	0x3e0a97ce	0.13534471
48	0x3a685f79	0.0008864324
49	0x3da0d197	0.07852476
50	0x3dae372f	0.08506619
51	0xbdc7c6ba	-0.09754701
52	0x3e09c82a	0.13455263
53	0x3d86d7db	0.0658414
54	0xbe2780d8	-0.16357744
55	0x3dbe915a	0.09305067
56	0x3de75f37	0.11297458
57	0x3da1c3c4	0.078986675
58	0xbcb2413b	-0.02175962
59	0xbda2f087	-0.07956033
60	0x3ddab6d9	0.10679407
61	0x3c1021d2	0.008797126
62	0x3def56aa	0.11686452
63	0x21d366cd	1.4325127e-18
64	0xa99b2b8b	-6.890936e-14
65	0x35222ca5	6.041467e-07
66	0x9e214b6e	-8.5388675e-21
67	0xaf06fcdb	-1.2277061e-10
68	0x9d852bb4	-3.5249995e-21
69	0x2ed8ea71	9.864188e-11
70	0xb079f3fe	-9.0932406e-10
71	0xaf805ff2	-2.3351238e-10
72	0xa7ba6575	-5.173537e-15
73	0xad857e5c	-1.5176464e-11
74	0xac392a5a	-2.631359e-12
75	0x2d7e80a8	1.4466796e-11
76	0xa5d3b995	-3.672842e-16
77	0x9b736ab3	-2.0134965e-22
78	0x93b7743d	-4.6310314e-27
79	0xadc4feb5	-2.2395733e-11
80	0x1efbfd68	2.6680465e-20
81	0x2a8ccd71	2.501155e-13
82	0x92c5178d	-1.2438254e-27
83	0xa6931666	-1.0206245e-15
84	0xa71c596b	-2.1697823e-15
85	0x98b90e8c	-4.7836068e-24
86	0xac89cfb0	-3.916832e-12
87	0x34824175	2.4262013e-07
88	0xb4fd97c0	-4.7235335e-07
89	0x2c0c3abb	1.9927799e-12
90	0x22d86a10	5.8659215e-18
91	0x2f7e1092	2.3107052e-10
92	0xac1b29a5	-2.2049942e-12
93	0x1f9c2950	6.6136916e-20
94	0x30a3dc3a	1.1922403e-09
95	0xb3d02ca8	-9.693878e-08
96	0x33fb2f24	1.1696673e-07
97	0x2a39a750	1.6489349e-13
98	0xaa9d09b6	-2.789554e-13
99	0x2bb39bf1	1.2761997e-12
100	0x2b8d0222	1.0019245e-12
101	0xb1a42b0b	-4.7779216e-09
102	0xad819968	-1.4733728e-11
103	0x2aa14d9c	2.8653197e-13
104	0x263e3149	6.5986286e-16
105	0xab8368ba	-9.337177e-13
106	0x33c1b320	9.0198455e-08
107	0x32053737	7.754173e-09
108	0x2eb930e6	8.421512e-11
109	0xaf8dc16b	-2.5785182e-10
110	0xb2e04606	-2.6108875e-08
111	0xad81c263	-1.4751927e-11
112	0x2d127a56	8.326303e-12
113	0x293d8d8d	4.2089206e-14
114	0x1dec7bb4	6.2596586e-21
115	0xb53417c7	-6.7089826e-07
116	0x32e15eab	2.6236497e-08
117	0x346c1d04	2.1989769e-07
118	0xb120f90a	-2.3424627e-09
119	0xaf203006	-1.4568977e-10
120	0x31132fbd	2.1418451e-09
121	0x3134b82e	2.6298141e-09
122	0x2e248799	3.7409718e-11
123	0xb417a904	-1.4124458e-07
124	0x3085a3ce	9.72358e-10
125	0xb223a2eb	-9.524892e-09
126	0x2a89db5a	2.4488294e-13
127	0x32c3afa3	2.2780858e-08
128	0xb52fa677	-6.543482e-07
129	0xa493fe87	-6.4182274e-17
130	0x3384b938	6.18042e-08
131	0xa7ccf493	-5.6886542e-15
132	0xaa804c4d	-2.2790312e-13
133	0xa467aead	-5.0238097e-17
134	0xb2328383	-1.0390866e-08
135	0xa8ee6891	-2.6468656e-14
136	0xb272ff37	-1.4144283e-08
137	0xb3313d9e	-4.1267064e-08
138	0x2d8e4d93	1.617798e-11
139	0x2e3ccd50	4.2928605e-11
140	0xac7fde33	-3.6361025e-12
141	0xa987c494	-6.029305e-14
142	0xb3821acd	-6.058472e-08
143	0xa4338d21	-3.893398e-17
144	0x2f26ef73	1.5182682e-10
145	0x22f47814	6.626347e-18
146	0x27807b8f	3.56611e-15
147	0xb05863b2	-7.872202e-10
148	0xa2d5f15b	-5.798931e-18
149	0x3138604c	2.6830262e-09
150	0x35117c56	5.419764e-07
151	0x377ad937	1.49517355e-05
152	0x30391145	6.732715e-10
153	0x26489d3d	6.9602037e-16
154	0xafb3aeea	-3.2684194e-10
155	0xaf53f3ca	-1.927695e-10
156	0x2d4db840	1.1693813e-11
157	0xb40c0498	-1.3040187e-07
158	0x3772086e	1.4426287e-05
159	0xb6b9edf9	-5.5411333e-06
160	0x310f8a9d	2.0888031e-09
161	0xae2d5d37	-3.9418437e-11
162	0xaabaaf1c	-3.3161744e-13
163	0x31d734a1	6.2633068e-09
164	0xb70a0103	-8.2256765e-06
165	0x2b81c0bd	9.219497e-13
166	0x2830d710	9.816597e-15
167	0xb1f2064d	-7.0438433e-09
168	0xb1bd377b	-5.5069314e-09
169	0x36fa69c5	7.462894e-06
170	0xb0ecdd07	-1.723408e-09
171	0x31030772	1.9067241e-09
172	0x33873bb7	6.2972894e-08
173	0x3626c4b8	2.4850433e-06
174	0x25ca4be0	3.509283e-16
175	0xb024301f	-5.9731237e-10
176	0xadd652f3	-2.436582e-11
177	0xaccb5bb5	-5.7797885e-12
178	0xb4cce744	-3.816623e-07
179	0xa9954f36	-6.63067e-14
180	0x37a958b5	2.0187677e-05
181	0x36a2d86b	4.8531706e-06
182	0xb408eceb	-1.2752177e-07
183	0x30876552	9.85134e-10
184	0x32d6fde0	2.5028328e-08
185	0xad03489d	-7.462611e-12
186	0x31663b7b	3.3503216e-09
187	0xb0f896bb	-1.8087215e-09
188	0x35208330	5.979555e-07
189	0xbd450cee	-0.048108034
190	0x3dac9fba	0.08428903
191	0x3d58947c	0.05287598
192	0xbdc57c78	-0.09642881
193	0x3d5cf2b0	0.053942382
194	0xbd164bd8	-0.036693424
195	0xbd138cb6	-0.036022864
196	0xbcc65471	-0.024210187
197	0xbb97b05c	-0.004629178
198	0xbe1d5315	-0.15363725
199	0x3d8270fe	0.06369208
200	0x3ced0689	0.02893378
201	0x3d26d472	0.040729947
202	0xbd56735d	-0.052356113
203	0xbd9800d3	-0.07422032
204	0xbde8bd1f	-0.11364197
205	0x3d6a3ba5	0.057185788
206	0x3e13a998	0.14420164
207	0xbdaf1177	-0.08548253
208	0xbdad0008	-0.084472716
209	0xbdb47e48	-0.08813149
210	0xbda4f597	-0.08054655
211	0xbca158ee	-0.019695725
212	0xbe052daa	-0.130057
213	0xbe04494f	-0.1291859
214	0xbcfb9647	-0.030711306
215	0x3c949263	0.018136209
216	0xbd564819	-0.05231485
217	0x3dabf6f3	0.08396711
218	0xbdb78b20	-0.08962083
219	0xbdd2a4f6	-0.1028537
220	0xbd65c4cb	-0.05609588
221	0x3d0ae00d	0.033905078
222	0xbdd804c8	-0.10547787
223	0x3d3bcba6	0.04584851
224	0x3d229fdc	0.039703235
225	0xbd12727f	-0.035753723
226	0xbe08cf60	-0.13360357
227	0xbd999d55	-0.07500712
228	0xbd4fbf93	-0.05071981
229	0xbdb62c33	-0.08895149
230	0xbc3d7f35	-0.011565973
231	0xbd9d83c6	-0.076911494
232	0x3d57d816	0.05269631
233	0xbc845f14	-0.016158618
234	0xbc193549	-0.009351083
235	0x3d8825e3	0.06647851
236	0x3dc4fd9a	0.09618683
237	0x3d12af80	0.0358119
238	0x3cc7e004	0.024398811
239	0x3d95be02	0.07311632
240	0xbde070c1	-0.10959006
241	0x3da1051a	0.07862301
242	0x3d1a04f7	0.03760239
243	0xbe0f2369	-0.13978352
244	0x3d7b02ec	0.061282083
245	0x3dba14b4	0.0908598
246	0x3d0a05f6	0.03369709
247	0xbd08bc93	-0.033382963
248	0xbd1da14f	-0.038483914
249	0x3d341fb2	0.04397554
250	0xbb6d61c7	-0.003622161
251	0x3c7bef35	0.015376856
252	0x3d0bd3d4	0.034137562
253	0x3d41502e	0.047195606
254	0xbc85023c	-0.016236417
255	0x3d120a33	0.035654258

feature_extractor.0.attention.2.bias f4 [15]
0	0x3e9c3602	0.30509955
1	0xb61c734d	-2.3312925e-06
2	0xb5f9a333	-1.8599443e-06
3	0x3e22a374	0.15882665
4	0x3ce3c8c8	0.0278057
5	0x3cdcf44a	0.026971955
6	0xbc901e1d	-0.017592484
7	0xbc483c46	-0.012221402
8	0xba901580	-0.0010992736
9	0x3cc8ab82	0.024495844
10	0x3cc4ea2b	0.024037441
11	0xb9c366d3	-0.00037269908
12	0x33a0ea05	7.4931485e-08
13	0x3dbecbc8	0.09316212
14	0x3e61a9f1	0.22037484

feature_extractor.0.attention.4.weight f4 [3, 15]
0	0x3e21d15f	0.15802525
1	0x2b88d041	9.721183e-13
2	0xbac87a8a	-0.0015295309
3	0x3de49b4c	0.11162433
4	0x3e400ff3	0.18756084
5	0xbd839583	-0.064250015
6	0xb9b92103	-0.00035310545
7	0x3c854ce9	0.016272025
8	0x3c23ffac	0.010009687
9	0xbe637474	-0.22212392
10	0x3c704884	0.014665727
11	0x3bb3cfb3	0.005487406
12	0x34311acd	1.649416e-07
13	0xbe503c1d	-0.20335431
14	0x3cc374da	0.02385943
15	0x3e86aaed	0.2630228
16	0x23a8fcb5	1.8321622e-17
17	0xba2053b8	-0.00061159907
18	0xbd9a347a	-0.0752954
19	0x3d91184d	0.07084713
20	0xbd8d0222	-0.068851724
21	0xbb23d9c7	-0.0025001632
22	0x3c576f33	0.013149071
23	0x3cc65056	0.024208229
24	0xbdadcfa2	-0.084868684
25	0xbd09695a	-0.033547737
26	0x3c0e650b	0.008691083
27	0x341f9955	1.4863811e-07
28	0xbd844ec6	-0.06460337
29	0xbdca42fa	-0.09876056
30	0x3a9eb038	0.0012106961
31	0x32514cc0	1.2182852e-08
32	0xbbff08a1	-0.007783011
33	0xbdf4dfea	-0.11956771
34	0x3de6c116	0.11267297
35	0xbd1d3813	-0.038383555
36	0x3be7d28a	0.0070746588
37	0xbcbf5e0d	-0.023360277
38	0xbcaecd50	-0.021338135
39	0x3ea39eb6	0.31957024
40	0x3c017bce	0.0079030525
41	0xbc207db0	-0.009795591
42	0xb49b387b	-2.8912095e-07
43	0xbe841fc2	-0.2580548
44	0x3e774197	0.24146114

feature_extractor.0.attention.4.bias f4 [3]
0	0x3e71a5d7	0.23598419
1	0x3ef65918	0.48114848
2	0xbef768fe	-0.4832229

feature_extractor.0.bn.weight f4 [63]
0	0x3f381844	0.71912026
1	0x3f3ff3ed	0.74981576
2	0x3f47b59b	0.7801148
3	0x3f413699	0.75473934
4	0x3f34f608	0.70687914
5	0x3f4012a7	0.7502846
6	0x3f2864ea	0.6577898
7	0x3f42f791	0.76159006
8	0x3f311666	0.691748
9	0x3f41bb7d	0.7567671
10	0x3f2b0c8a	0.6681601
11	0x3f067bab	0.5253245
12	0x3f3bb420	0.73321724
13	0x3f4251fa	0.75906336
14	0x3f2deace	0.6793641
15	0x3f3a327d	0.7273329
16	0x3f259e2a	0.64694464
17	0x3f30e44e	0.69098365
18	0x3f36ab7d	0.7135542
19	0x3f471a4d	0.77774507
20	0x3f438697	0.7637724
21	0x3f3a4ea1	0.7277623
22	0x3f2b6754	0.6695454
23	0x3f5102c8	0.8164487
24	0x3f41e6cc	0.75742793
25	0x3f4cac3f	0.79950327
26	0x3f374bd1	0.7160006
27	0x3f40708f	0.7517175
28	0x3f4f3b9e	0.80950344
29	0x3f376078	0.71631575
30	0x3f54a4c3	0.83063906
31	0x3f1f8bae	0.6232251
32	0x3f2e706b	0.68140286
33	0x3f300acc	0.68766475
34	0x3f523202	0.82107556
35	0x3f3a2af8	0.72721815
36	0x3f34525c	0.7043817
37	0x3f5b11bc	0.85573936
38	0x3f31da3a	0.6947361
39	0x3f55ffd7	0.83593506
40	0x3f5f526d	0.87235147
41	0x3f4497e6	0.7679428
42	0x3f56b6a8	0.8387246
43	0x3f44302a	0.7663599
44	0x3f5b182e	0.8558377
45	0x3f5c3bd9	0.8602882
46	0x3f26d781	0.6517258
47	0x3f5add5f	0.85494035
48	0x3f5fc154	0.8740437
49	0x3f588dba	0.8459126
50	0x3f5d3a7d	0.8641737
51	0x3f630a39	0.88687474
52	0x3f4b4498	0.7940154
53	0x3f5d0664	0.86337876
54	0x3f57e603	0.84335345
55	0x3f4c0543	0.7969553
56	0x3f5d5684	0.8646014
57	0x3f631558	0.8870444
58	0x3f665301	0.89970404
59	0x3f5f863f	0.8731422
60	0x3f56f870	0.83972836
61	0x3f640fd9	0.8908668
62	0x3f6b5c20	0.91937447

feature_extractor.0.bn.bias f4 [63]
0	0xbe62522a	-0.22101656
1	0xbe83f768	-0.25774693
2	0xbe314104	-0.17309958
3	0xbdcddc6a	-0.10051806
4	0xbe40c5d4	-0.18825465
5	0xbe6cd260	-0.23127127
6	0xbe0e6a62	-0.1390777
7	0xbe491988	-0.19638646
8	0xbdb3a098	-0.08770865
9	0xbe65a689	-0.2242681
10	0xbe36cdbd	-0.1785192
11	0xbd8366ea	-0.06416114
12	0xbdd1cbf9	-0.10243983
13	0xbe650595	-0.2236541
14	0xbe04c807	-0.1296693
15	0xbddfa3a1	-0.109198816
16	0xbdb075e3	-0.08616235
17	0xbe0f24ec	-0.13978928
18	0xbe4de595	-0.2010711
19	0xbe98e7be	-0.29864305
20	0xbe3d5176	-0.18488106
21	0xbddba198	-0.10724181
22	0xbe4114b9	-0.18855561
23	0xbe7bcfec	-0.24591035
24	0xbe7c8421	-0.24659778
25	0xbe5f15f6	-0.21785721
26	0xbdb897cc	-0.09013328
27	0xbe6f84b1	-0.23390462
28	0xbe46e1ce	-0.19422075
29	0xbe35dd7e	-0.17760274
30	0xbe3c20f3	-0.18371944
31	0xbe5f8592	-0.21828297
32	0xbe20ecf5	-0.15715392
33	0xbde323eb	-0.11090835
34	0xbe23dc1f	-0.16001938
35	0xbe1a9554	-0.15096027
36	0xbe1045ef	-0.14089178
37	0xbe48c96d	-0.19608088
38	0xbdfb651e	-0.12275146
39	0xbe6007ec	-0.21878022
40	0xbe6ba5a7	-0.2301241
41	0xbe2d06df	-0.16897152
42	0xbed21823	-0.4103404
43	0xbe9dd0e9	-0.30823448
44	0xbec99a8b	-0.3937572
45	0xbed5106f	-0.416141
46	0xbe549c99	-0.20762862
47	0xbe7afad6	-0.24509749
48	0xbed5e5de	-0.41776937
49	0xbed4dc39	-0.41574267
50	0xbedc5fb7	-0.43041775
51	0xbedd2c1a	-0.4319771
52	0xbeb2c99e	-0.34919447
53	0xbeea45ab	-0.45756277
54	0xbeb78a84	-0.35847867
55	0xbec3b7b6	-0.38226098
56	0xbe8ab350	-0.2708993
57	0xbed57c4a	-0.41696388
58	0xbedd796a	-0.43256694
59	0xbed7392d	-0.4203581
60	0xbeb72ee9	-0.35777977
61	0xbee3dc04	-0.44503796
62	0xbedef3a8	-0.4354527

feature_extractor.0.bn.running_mean f4 [63]
0	0xbe8486bb	-0.2588404
1	0xbdcb8dac	-0.09939131
2	0x3d8c645a	0.06855078
3	0xbddd0402	-0.1079178
4	0x3d5eeecb	0.05442695
5	0xbc76533e	-0.015034495
6	0x3c7ab661	0.015302272
7	0x3cb1b596	0.021693032
8	0x3d91a797	0.07112043
9	0x3de91791	0.11381448
10	0xbd13183f	-0.035911795
11	0x3d30e6f1	0.043188993
12	0x3c15fe01	0.0091547975
13	0x3c7c568f	0.015401497
14	0xbdd70bc5	-0.10500292
15	0x3c28b83f	0.010297834
16	0x3e6090f4	0.21930295
17	0xbe49c90f	-0.19705604
18	0xbe859869	-0.26092842
19	0xbced65a6	-0.028979134
20	0x3b67d0e7	0.0035372318
21	0xbdc0a75b	-0.094069205
22	0x3dae5117	0.085115604
23	0xbd8a7274	-0.067601115
24	0xbe8bc524	-0.27298844
25	0xbea2d274	-0.31801188
26	0xbe3afff7	-0.18261705
27	0xbdf40d7e	-0.11916636
28	0xbc9804c4	-0.01855696
29	0x3c87185b	0.016491106
30	0xbde2350d	-0.11045275
31	0xbca934a3	-0.020654982
32	0xbe7132a0	-0.23554468
33	0xbd07053e	-0.032963984
34	0xbc1ec650	-0.009690836
35	0xbc13b8be	-0.009016214
36	0xbdf26859	-0.11836309
37	0xbe6cbaa5	-0.23118074
38	0x3e3bef2f	0.1835296
39	0xbdc5acda	-0.096521094
40	0xbde998f6	-0.11406128
41	0xbdfb2b92	-0.1226417
42	0xbbcd6cd2	-0.006269076
43	0xbd853dcb	-0.06505927
44	0x3c35b058	0.011089407
45	0x3cec719c	0.028862767
46	0x3a832dc5	0.0010008147
47	0x3d3c2c12	0.045940466
48	0x3b8f17bf	0.0043668444
49	0xbad02a3f	-0.0015881731
50	0xbc634019	-0.013870263
51	0xbb0bf2c4	-0.0021354416
52	0x3dcadae5	0.09905032
53	0xbd102a15	-0.035196383
54	0xbdcb1152	-0.09915413
55	0x3d84ac6a	0.06478198
56	0x3c4c8bdf	0.01248452
57	0xbcc395a3	-0.023875063
58	0x3c421ef5	0.011848201
59	0xbc507fd3	-0.012725788
60	0x3d4a2862	0.04935492
61	0xbc6dc50e	-0.0145123135
62	0x3d57391e	0.052544706

feature_extractor.0.bn.running_var f4 [63]
0	0x3d39e988	0.04538873
1	0x3d856fe0	0.06515479
2	0x3d833c5f	0.06407999
3	0x3d64485a	0.055733062
4	0x3d849c94	0.064751774
5	0x3d120ff6	0.035659753
6	0x3d3bd3a1	0.045856122
7	0x3d2836f7	0.041068044
8	0x3d8c67b8	0.0685572
9	0x3d0ceee0	0.034407496
10	0x3d3dc23f	0.046327826
11	0x3df2a4cf	0.11847841
12	0x3d82b02b	0.063812576
13	0x3c9276f1	0.017878981
14	0x3d8c75cc	0.068584055
15	0x3d82e3c1	0.06391097
16	0x3dc95096	0.09829824
17	0x3e01ad97	0.12663876
18	0x3dea72ac	0.11447653
19	0x3d0d1f11	0.034453455
20	0x3c80c546	0.015719067
21	0x3e309290	0.17243409
22	0x3e14ac2d	0.14518805
23	0x3df34b31	0.11879576
24	0x3e8ccf4e	0.2750191
25	0x3e774340	0.24146748
26	0x3e1f4654	0.15554172
27	0x3dd6be09	0.10485465
28	0x3db9899a	0.090594485
29	0x3e059e5d	0.13048692
30	0x3e1588b5	0.14602931
31	0x3ddae3d5	0.10687987
32	0x3e09dd3a	0.13463297
33	0x3e4e8abf	0.20170115
34	0x3dffd579	0.124918886
35	0x3e76062c	0.24025792
36	0x3e0b7be1	0.13621475
37	0x3e1ddfe3	0.15417437
38	0x3e419407	0.18904124
39	0x3e445e09	0.19176497
40	0x3dc38f8b	0.09548863
41	0x3e779467	0.24177705
42	0x3c5e5f69	0.013572552
43	0x3c030507	0.007996804
44	0x3c1845a3	0.009293946
45	0x3c0069bd	0.00783771
46	0x3c524195	0.012833019
47	0x3c1d1856	0.009588322
48	0x3bbfb228	0.0058500953
49	0x3c0cd95b	0.008596743
50	0x3bdd1278	0.0067465864
51	0x3c2afd25	0.010436331
52	0x3cc25cd1	0.023725899
53	0x3c138a99	0.009005212
54	0x3c0cfc8a	0.008605132
55	0x3c83a48c	0.016069673
56	0x3c03e360	0.008049816
57	0x3c51d9cf	0.012808277
58	0x3c49a9d2	0.012308555
59	0x3c2f0f38	0.010684781
60	0x3bf0006d	0.0073242695
61	0x3c0646be	0.008195577
62	0x3c608a91	0.013704912

feature_extractor.3.conv3.weight f4 [42, 63, 3]
0	0xbdae195b	-0.0850093
1	0xbce9e0a7	-0.028549505
2	0xbd99f07e	-0.07516573
3	0x3d23bbfe	0.039974205
4	0xbc72a109	-0.014808902
5	0xbd2e18e0	-0.04250419
6	0x3d9bb18e	0.07602225
7	0x3d78a3e2	0.060703166
8	0x3d4177ee	0.047233514
9	0x3d6277ae	0.055289917
10	0x3d6886e6	0.056769274
11	0x3d314bfe	0.043285362
12	0x3d91f710	0.071272016
13	0x3c403c63	0.011733147
14	0x3d555cc5	0.052090425
15	0xbce48300	-0.027894497
16	0xbd003cfc	-0.03130816
17	0xbd8c9fed	-0.06866441
18	0x3c49d9e4	0.012320016
19	0x3d96982f	0.073532455
20	0xbcc94df5	-0.024573306
21	0x3c904b2e	0.017613973
22	0x3cd94702	0.026523117
23	0x3d6e345f	0.058155414
24	0x3d2f9dfc	0.042875275
25	0x3d155582	0.0364585
26	0x3cf38e80	0.029731035
27	0xbb90e4ad	-0.0044217915
28	0x3cfa550f	0.030558137
29	0x3c780b45	0.015139406
30	0x3ced56df	0.028972087
31	0xbc72ad74	-0.014811862
32	0x3cb3b299	0.021935748
33	0xbc24ddf4	-0.010062683
34	0xbcb8f1fe	-0.022576328
35	0xbd68408e	-0.05670219
36	0x3dad3f1d	0.084593035
37	0x3c0ce883	0.008600357
38	0xbc88652c	-0.016649805
39	0xbd7d91ff	-0.06190681
40	0xbdb3f69d	-0.08787272
41	0xbd9a233c	-0.07526252
42	0xbce32607	-0.027728094
43	0xbaa0c93b	-0.0012267003
44	0x3cd22329	0.025651531
45	0x3c684d88	0.014178641
46	0x3c8d796c	0.017269813
47	0x3c5b7f0e	0.013396991
48	0xbc48fb16	-0.012266895
49	0x3d504e50	0.050855935
50	0x3cb96b23	0.022634095
51	0x3cb82070	0.022476405
52	0xbca3f61b	-0.020014813
53	0x3d1e2728	0.03861156
54	0xbdcfbff9	-0.10144038
55	0xbce29407	-0.027658476
56	0xbd9d5596	-0.0768234
57	0xbd5f981b	-0.05458842
58	0xbd4df904	-0.050286308
59	0xbd307edc	-0.043089733
60	0xbc9bf439	-0.019037353
61	0xbd2712e7	-0.04078951
62	0xbc66f27a	-0.014095897
63	0x3cf13631	0.029444786
64	0x3d59a27f	0.053133484
65	0x3dcb9bab	0.09941801
66	0x3cf54f24	0.029944964
67	0x3db5cc8a	0.08876903
68	0x3d29adbb	0.041425448
69	0xbc4a639e	-0.012352852
70	0x3d18002b	0.037109535
71	0x3d150bae	0.03638809
72	0xbcef18ad	-0.029186571
73	0xbd87bac1	-0.06627417
74	0xbd38d33b	-0.04512332
75	0xbd814219	-0.06311435
76	0xbdda8116	-0.106691524
77	0xbd939b39	-0.07207341
78	0x3bd8cf28	0.006616492
79	0xbd81116c	-0.06302151
80	0xbd6829b3	-0.056680392
81	0x3d252a7b	0.040323716
82	0x3c310111	0.010803477
83	0xbc2a8d56	-0.010409674
84	0xbcb29e90	-0.021804124
85	0x3bdf17a0	0.0068082362
86	0xbd51e278	-0.051241368
87	0x3d07d008	0.03315738
88	0x3d848922	0.064714685
89	0x3d80e88e	0.06294356
90	0x3998f86e	0.00029176794
91	0x3d004f02	0.031325348
92	0xbd7de7ed	-0.06198876
93	0x3d984aeb	0.074361645
94	0x3dbe1994	0.092822224
95	0x3db11c7b	0.0864801
96	0xbd8209c0	-0.06349516
97	0xbc2b1491	-0.010441915
98	0xbc474082	-0.012161376
99	0xbd57d074	-0.05268903
100	0xbd469616	-0.048482977
101	0xbda896a7	-0.0823186
102	0xbd8a6598	-0.06757659
103	0xbd4ff0a2	-0.050766595
104	0xbdb98d6c	-0.09060177
105	0x3c88a8c8	0.016682044
106	0x3d6f0262	0.05835188
107	0x3c848830	0.01617822
108	0xbcb46c0b	-0.022024175
109	0xbd71e4cc	-0.05905609
110	0xbc07c3fb	-0.0082864715
111	0xbd23c3bd	-0.039981592
112	0xbcd85223	-0.026406353
113	0xbd842653	-0.06452622
114	0x3db70f91	0.08938516
115	0x3d58a994	0.052896097
116	0x3da73924	0.081651956
117	0x3df1440d	0.11780558
118	0x3deabf6f	0.11462294
119	0x3d87d6df	0.0663278
120	0x3d95a938	0.073076665
121	0x3d92e794	0.07173076
122	0x3db11ace	0.08647691
123	0x3db308a8	0.087418854
124	0x3d1c283d	0.03812431
125	0x3d548f0c	0.051894233
126	0xbd69de4d	-0.05709677
127	0xb944314a	-0.00018710378
128	0xbd462483	-0.048374664
129	0xbd35ecd9	-0.04441533
130	0xbd84edbe	-0.06490658
131	0xbd0932a7	-0.03349557
132	0xbe38769c	-0.18013996
133	0xbd9b627e	-0.07587145
134	0xbdd787cc	-0.10523948
135	0xbe1541d5	-0.14575894
136	0xbdf69ae7	-0.12041264
137	0xbe1c7498	-0.15278852
138	0x3b8c2ed6	0.004278044
139	0x3ca9fcd8	0.020750448
140	0x3dc69242	0.09695865
141	0xbd8f5d72	-0.07000245
142	0xbd6719ca	-0.05642108
143	0xbd419d29	-0.04726902
144	0x3c26822f	0.010162874
145	0xbb80c75b	-0.003930015
146	0x3c0e2926	0.008676803
147	0xbe57695d	-0.21036287
148	0xbe28c243	-0.16480355
149	0xbe67a613	-0.22621946
150	0xbe15c241	-0.14624883
151	0xbdd2a868	-0.10286027
152	0xbe264aa5	-0.16239412
153	0xbd2d5a97	-0.04232272
154	0xbd5ccff2	-0.05390925
155	0xbd6bb4a8	-0.057545334
156	0xbcfc50d2	-0.030800257
157	0xb9ecfc85	-0.0004520157
158	0xbd07dfcc	-0.033172414
159	0xbcc3ccd7	-0.023901386
160	0xbab88fd4	-0.001408095
161	0xbd8a63c9	-0.06757314
162	0x3ba4ae90	0.0050256923
163	0x3d47c6d2	0.048773594
164	0x3c8d08a9	0.017216044
165	0x3d76b70a	0.060233153
166	0x3d401a66	0.046900176
167	0x3d7b0f93	0.06129415
168	0xbbbad8ea	-0.0057021277
169	0xbd8c00d7	-0.06836098
170	0xbd8b845b	-0.06812354
171	0xbe1f0d81	-0.15532495
172	0xbdf70991	-0.120623715
173	0xbe38122e	-0.17975685
174	0xbd392cad	-0.04520862
175	0x3d096196	0.03354033
176	0xbbf35d07	-0.007426861
177	0xbe321a92	-0.17392948
178	0xbdd9f077	-0.10641568
179	0xbe398a57	-0.18119179
180	0xbd2d452c	-0.042302296
181	0xbd194a84	-0.03742458
182	0xbd6a3cc1	-0.057186846
183	0xbe164e3d	-0.14678283
184	0xbd7d676b	-0.061866205
185	0xbdbde191	-0.09271539
186	0xbd0e7b5b	-0.03478561
187	0x3b229bbd	0.0024812066
188	0xbcec7b68	-0.028867438
189	0x3bec597b	0.0072128153
190	0xbc69d652	-0.014272289
191	0x3cf415fb	0.029795637
192	0x3dbb9d76	0.09160893
193	0x3dad15c3	0.08451416
194	0x3da202e5	0.07910708
195	0x3cec7af7	0.028867228
196	0x3d39138e	0.045184664
197	0x3c964b33	0.018346405
198	0xbcb54678	-0.022128329
199	0xbcc8f0b9	-0.024528848
200	0x3bf80407	0.0075688395
201	0x3e1d8993	0.15384512
202	0x3e0f69fc	0.14005274
203	0x3df76431	0.12079657
204	0x3cc77f24	0.024352618
205	0x3cb0bbdd	0.021573955
206	0xbd23eef8	-0.04002282
207	0xbd015ee9	-0.031584654
208	0xbd4bf80b	-0.0497971
209	0xbc5460ca	-0.012962529
210	0xbae45514	-0.0017420375
211	0xbdadea2c	-0.0849193
212	0xbd32c90d	-0.04364877
213	0x3da5fe06	0.08105092
214	0x3e021f2a	0.127072
215	0x3e251e01	0.16124727
216	0xbd9fd2be	-0.07803868
217	0xbd80e935	-0.06294481
218	0xbd65f8f9	-0.056145642
219	0x3d2bc53b	0.04193614
220	0x3dc817ad	0.09770141
221	0x3dd51c79	0.10405821
222	0xbc85a168	-0.016312316
223	0xbd44c490	-0.04803902
224	0xbcef882f	-0.029239742
225	0x3db584d4	0.088632256
226	0x3de7caf9	0.11318011
227	0x3dd1175a	0.10209532
228	0xbd06f125	-0.032944817
229	0xbd8cd8d7	-0.068772964
230	0xbcd8d76d	-0.02646991
231	0xbdb97385	-0.09055237
232	0xbd839ed5	-0.06426779
233	0xbde7dc9f	-0.11321377
234	0x3dafe7f1	0.08589161
235	0x3e183393	0.14863424
236	0x3e29c4e3	0.16579013
237	0xbc0fdb43	-0.008780303
238	0x3c60861e	0.013703851
239	0x3d0df84b	0.03466062
240	0xbceac9a8	-0.02866061
241	0xbd4f8dc0	-0.050672293
242	0xbd96fae2	-0.07372071
243	0x3a7d009d	0.00096512755
244	0xbd2eabe5	-0.0426444
245	0xbb6bb762	-0.003596746
246	0x3d3d6892	0.046242304
247	0x3d3330eb	0.043747824
248	0xbc58afe4	-0.013225529
249	0xbcd5645e	-0.026048835
250	0xbc526c97	-0.012843273
251	0x3db2b62d	0.087261535
252	0xbcbc7ca5	-0.023008654
253	0x3d167157	0.036729183
254	0x3c980d6c	0.018561088
255	0x3d863513	0.06553092

feature_extractor.3.conv3.bias f4 [42]
0	0xbe0fcbb3	-0.14042549
1	0xbde554b8	-0.111977994
2	0xbd034105	-0.03204443
3	0xbcd00408	-0.025392547
4	0xbd2a7413	-0.041614603
5	0xbd92bf6d	-0.07165418
6	0xbc36a824	-0.011148486
7	0x3d18846a	0.037235655
8	0xbdd85d48	-0.10564667
9	0xbd332957	-0.043740597
10	0xbd9ec938	-0.07753223
11	0xbd3ada05	-0.045618076
12	0xbe48aaed	-0.19596453
13	0xbe045e87	-0.12926684
14	0xbdac589f	-0.08415341
15	0xbdfcd321	-0.12344957
16	0xbda8e365	-0.08246497
17	0xbd66f790	-0.056388438
18	0xbe23fea0	-0.160151
19	0xbe138ef3	-0.1441
20	0xbd80b9a6	-0.0628541
21	0xbbda1272	-0.006655031
22	0xbe23e296	-0.16004404
23	0xbe2a605e	-0.16638324
24	0xbd84a51b	-0.06476804
25	0xbe08cda7	-0.133597
26	0xbdcf2fb1	-0.10116518
27	0xbdde2df3	-0.10848608
28	0x3c4bf6b8	0.012448959
29	0xbd222918	-0.03958997
30	0xbdd62e08	-0.104579985
31	0xbd1a73cf	-0.0377081
32	0xbd20d3ae	-0.039264373
33	0x3c075647	0.008260316
34	0xbe080754	-0.13284045
35	0xbe045007	-0.12921153
36	0xbd406a11	-0.046976153
37	0xbd91c178	-0.07116979
38	0x3c2dcb07	0.0106074875
39	0xbd532663	-0.05155028
40	0xbd1bad13	-0.038006853
41	0xbd2cb016	-0.042160116
